model_ckpt/tiny_unet.pth (torch, 495971 bytes, 65 tensors)

enc1.conv1.weight f4 [16, 1, 3, 3]
000000 76 36 80 3e 0a 4b 8b 3e 33 e8 a6 bd 84 66 a0 3e
       0.2504155 0.27205688 -0.08149757 0.31328213
000010 a5 07 85 bd f5 ad 9d 3d 75 df 1d be e0 5c 50 3e
       -0.06495599 0.07699195 -0.15417273 0.20347929
000020 35 bc 99 3e 9b b1 7b be 77 ff 91 3e 5c 23 71 3d
       0.30026403 -0.2457947 0.28515217 0.058871612
000030 3d 64 72 3e 5e a0 1b 3d 3e d6 22 3e 92 1c 3f bd
       0.2367105 0.037994735 0.1590204 -0.046658106
000040 2c 6c 84 3e b7 30 49 3d 27 49 22 be a3 58 a5 3d
       0.2586378 0.049118724 -0.15848218 0.08073547
000050 da 29 23 be b9 53 2f bd 29 0f 10 be 29 22 5d 3e
       -0.15933934 -0.042804454 -0.14068283 0.21595062
000060 89 31 8a be ee bd 26 be 1e bb cf bd d5 06 4e be
       -0.26990917 -0.1628339 -0.10143112 -0.20119794
000070 aa 96 02 3d bd 1e a8 be ee 9b 9a 3e f8 fc 8f be
       0.031881966 -0.3283595 0.3019709 -0.28122687
000080 4c fa 84 3e 3b 19 6c 3d 46 c9 d8 bd 51 1b 55 3e
       0.2597221 0.05764125 -0.10585265 0.20811202
000090 59 d4 51 3d ac 77 89 3e 49 7d 10 3d 75 6b d4 bd
       0.0512279 0.26849115 0.03527573 -0.10372058
0000a0 5b fe bb 3d f5 ad b2 bd e7 7c 13 3e 93 6b 9a 3e
       0.09179374 -0.08724586 0.14403115 0.30160198
0000b0 50 fa 49 3e 08 36 0f be d3 7a 44 3e 7a a4 62 3d
       0.19724393 -0.13985455 0.19187479 0.05533264
0000c0 ae 9b 32 3e a6 5a 4d be 6a 48 ab be c6 61 03 be
       0.174422 -0.20054111 -0.33453685 -0.12830266
0000d0 2f 95 82 be 5b 4e 8c 3e 5e 62 bf 3d 3c 44 0a 3e
       -0.25504443 0.2740353 0.09344934 0.13502592
0000e0 f0 6c d1 3d 04 76 f5 bb 56 ea 85 3e c2 e0 71 be
       0.10225856 -0.007490875 0.26155347 -0.23620895
0000f0 68 d9 eb 3c b6 9d 60 be 57 43 e3 3d c1 23 ec bd
       0.02879019 -0.21935162 0.110968284 -0.11530257
000100 a7 01 ce 3d 82 10 91 bd 5b 6d 8c 3e 51 49 4c be
       0.10058909 -0.07083227 0.27427182 -0.19949843
000110 d7 59 4c be ec 4d 4c be 15 b2 99 3e 34 d2 e4 3d
       -0.19956146 -0.199516 0.30018678 0.111729056
000120 73 d9 a4 3e 54 f6 8b be 88 7a a8 be b0 4d 84 be
       0.3219715 -0.2733637 -0.32905984 -0.2584052
000130 eb 28 63 be c8 66 0c 3e 77 b7 fa 3d 11 5d 8f 3e
       -0.22183578 0.13711083 0.122420244 0.28000692
000140 c7 26 2d be 01 54 6a be 38 be 33 3e 29 e5 0a be
       -0.16909324 -0.22883607 0.17553031 -0.1356398
000150 d8 d4 4f 3e 30 27 9f bd 67 ba 45 3e f9 fc 82 be
       0.20296037 -0.07771146 0.19309388 -0.25583628
000160 eb 83 28 be b4 86 d6 3d 89 a0 94 3d b5 fa a8 bd
       -0.16456573 0.10474911 0.07257182 -0.082509436
000170 5d 5f 4e 3e ed a7 6d 3e 44 af 71 be ad f9 30 be
       0.20153566 0.2320859 -0.23602015 -0.17282744
000180 d9 fb 9f 3e d7 c2 d6 bd 17 e6 e2 bd 41 1f a8 be
       0.31246832 -0.104863815 -0.110790424 -0.32836345
000190 fd 69 47 be 44 e5 a5 3d ee bc 63 bd 8d 15 7f be
       -0.19474025 0.081003696 -0.0556001 -0.24910565
0001a0 9f 20 8e 3b 30 36 75 be 3d f9 94 be c3 a8 40 be
       0.004337385 -0.23946452 -0.29096404 -0.18814377
0001b0 60 4d 98 be 76 66 5f be 86 06 a9 3e 62 b8 61 3d
       -0.29746532 -0.2181643 0.3301279 0.05510748
0001c0 56 7b cb 3d 36 b5 9f be f6 06 63 be f1 dd e3 bd
       0.09935634 -0.3119294 -0.22170624 -0.11126316
0001d0 96 31 60 3d ae 73 91 be ba 48 0a be 8c c1 43 be
       0.05473479 -0.2840857 -0.13504305 -0.19116801
0001e0 a2 ea 10 3c 00 0e f3 bd 02 47 91 bc 65 6e 5e be
       0.008845003 -0.11867905 -0.017734054 -0.217218
0001f0 1c f3 63 be 87 8a 3f be f2 fd f5 bd 03 11 8a be
       -0.22260708 -0.18705188 -0.12011327 -0.26966104
000200 96 d3 8b 3e 40 ea 97 bd ec 93 8e 3e d9 bd c5 3d
       0.27309865 -0.074177265 0.2784723 0.09655351
000210 e5 30 93 be 32 ea 68 3e b5 91 be bd d1 db 0e be
       -0.2874824 0.22745588 -0.09305135 -0.13951041
000220 ed b4 93 be ad e7 ae be 60 00 b5 3d 4a a9 a0 bd
       -0.28848973 -0.3416113 0.08837962 -0.07844789
000230 f7 18 00 3e 49 fe 8e be d1 44 7a 3e 23 d2 7d be
       0.12509523 -0.2792838 0.24440314 -0.24787192

enc1.conv1.bias f4 [16]
000000 43 a9 61 bd 5f 19 8d 3d f7 8e 2e 3e e0 69 8b 3e
       -0.05509306 0.06889605 0.17046724 0.27229214
000010 3e fb 9d 3e b0 53 88 be bc b7 ac 3d 4e 8b 19 be
       0.30855745 -0.26626348 0.08433482 -0.14994547
000020 09 ef 1c bd 9c 41 7b be c5 de 98 3e ed bd 7d be
       -0.0383139 -0.24536747 0.2985746 -0.24779482
000030 91 03 34 3e 92 6d f1 3d d6 7f d9 3d a8 8c 37 be
       0.17579485 0.11788477 0.10620086 -0.1792475

enc1.bn1.weight f4 [16]
000000 8a 6e 80 3f 05 0a 7f 3f 74 3b 80 3f fe 42 80 3f
       1.0033734 0.99624664 1.0018144 1.0020444
000010 9c b3 80 3f 20 a8 7f 3f b4 5f 7d 3f 1f 02 80 3f
       1.0054812 0.99865913 0.98974156 1.0000647
000020 4c d0 80 3f b8 56 80 3f cd 87 7f 3f e0 55 80 3f
       1.0063567 1.0026464 0.9981659 1.0026207
000030 3f 99 80 3f 39 d1 7e 3f 23 17 7e 3f d6 70 80 3f
       1.0046767 0.99538 0.99254054 1.0034435

enc1.bn1.bias f4 [16]
000000 a8 81 89 3b 13 68 d9 3a 48 c8 80 3b 7a 8b 83 b9
       0.0041963644 0.0016586803 0.0039301254 -0.00025090185
000010 44 fd 02 bb 6a 5e f3 3b 31 46 ac 3a cd e0 5d 39
       -0.0019987384 0.0074270265 0.0013143477 0.00021159947
000020 2e 20 5f 3b c6 04 e8 ba 1d cf 96 ba 8e 10 60 3b
       0.003404628 -0.0017701618 -0.0011505816 0.0034189555
000030 16 23 4c 3b 5e 4d a1 bb f9 a4 2e bc 48 d2 b4 3b
       0.0031148843 -0.004922553 -0.01065945 0.0055182315

enc1.bn1.running_mean f4 [16]
000000 f9 39 3f bd d4 38 74 3d 29 22 14 3e 71 66 6c 3e
       -0.046686146 0.059624508 0.14466156 0.23085953
000010 3c 84 85 3e ee 0e 67 be 9d b7 92 3d 88 db 00 be
       0.2607745 -0.22564289 0.07163928 -0.12583745
000020 68 a7 03 bd 6b b1 56 be 9f 4d 82 3e ca ce 57 be
       -0.032142073 -0.20966117 0.25449845 -0.21074978
000030 ae 64 18 3e 2d 3a ca 3d 26 74 b9 3d 82 de 1d be
       0.14882156 0.098743774 0.09055357 -0.15416911

enc1.bn1.running_var f4 [16]
000000 00 bb 19 3e 85 b7 19 3e 27 b6 19 3e c7 b3 19 3e
       0.15012741 0.15011413 0.15010892 0.15009986
000010 fa b7 19 3e f0 b3 19 3e 74 b3 19 3e be b2 19 3e
       0.15011588 0.15010047 0.15009862 0.15009591
000020 c5 b4 19 3e f0 b2 19 3e ca b2 19 3e e9 c0 19 3e
       0.15010364 0.15009665 0.15009609 0.15014996
000030 17 b5 19 3e 4c bf 19 3e e3 b2 19 3e 62 b8 19 3e
       0.15010487 0.1501438 0.15009646 0.15011743

enc1.conv2.weight f4 [16, 16, 3, 3]
000000 36 4f a2 3d 96 59 bf 3c 19 96 88 3c 51 bc 92 bd
       0.079252645 0.023358148 0.016673135 -0.07164825
000010 73 f9 19 3d 6d 54 0f bc 39 54 36 bd e4 a9 85 3d
       0.03759141 -0.008748156 -0.044513915 0.06526545
000020 a4 18 4a 3c 16 d3 17 bd d0 19 03 bd 1b d9 72 3b
       0.012334976 -0.03706654 -0.03200704 0.0037055674
000030 ee 26 3b 3d 48 23 b3 bc 48 9b 49 bd c6 69 0f bd
       0.045691423 -0.02186741 -0.049220353 -0.035012983
000040 48 bd 8c bd 5e ec bb 3c f7 93 8b 3d 0a 25 97 bd
       -0.0687204 0.022939857 0.068153314 -0.073801115
000050 57 07 cd 3c b4 fd 40 3d f8 6f a6 3c 02 06 c2 bc
       0.025027914 0.04711695 0.020317063 -0.023684505
000060 81 42 45 3d 0c 92 4a 3d 94 3a 1b 3d 73 dc a6 bc
       0.048159126 0.049455687 0.03789766 -0.02036879
000070 b8 0e e5 bc 9c 99 3d 3b cf 57 ba bc 8b 30 04 bd
       -0.02796112 0.002893067 -0.022746949 -0.032272857
000080 88 d6 39 3d 35 f0 81 3d 14 60 88 bc e5 cb dc bc
       0.04537061 0.06344644 -0.016647376 -0.026952693
000090 d7 a3 2e 3b 39 0c 10 bb 6d 58 bc 3c 35 d2 c6 3c
       0.002664795 -0.0021979942 0.022991383 0.024270156
0000a0 17 2b 98 bd f3 b3 f4 bc 15 ca 81 3d 32 48 d1 3c
       -0.07430094 -0.029870963 0.06337372 0.02554712
0000b0 53 1d 37 bc 12 04 65 bd 8f 36 60 bd 34 4b 9f bd
       -0.011176425 -0.055912085 -0.05473953 -0.07778016
0000c0 ed 14 8f bc 20 c6 1e 3d bc d3 82 3d ab ca 2e 3d
       -0.017466033 0.038763165 0.063880414 0.042673748
0000d0 84 4b 87 bd b5 15 2c bd 06 02 1d bc 55 e8 b5 3d
       -0.066062 -0.04201289 -0.009583002 0.088822044
0000e0 21 7e a8 3c 4a 59 44 bc e3 96 39 3d 45 95 a7 bc
       0.020567955 -0.011984179 0.045309912 -0.02045692
0000f0 ef 07 63 bd d5 3d 6e 3d 35 75 25 bd b6 e3 b7 bc
       -0.055427488 0.058164436 -0.04039498 -0.022447448
000100 a4 3b b5 bd 17 5a 4f 3d 2a 4c 5d 3d 97 eb b0 3c
       -0.08849266 0.050623026 0.054027714 0.021596713
000110 e8 42 87 bd 77 a9 b7 bd a5 ac 9b bd eb 3e 58 3d
       -0.06604558 -0.0896787 -0.07601289 0.05279438
000120 5e c0 25 3d 09 b8 98 3d b2 88 4c 3d dd 9c 8d 3c
       0.04046666 0.07456977 0.04993505 0.017286712
000130 56 5b 7d bb 99 a1 85 bd 85 e1 9a bd bf 56 a8 bd
       -0.0038659177 -0.06524963 -0.07562546 -0.082196705
000140 30 14 ff 3c 57 9e 0d bd ec 94 49 bc ee 15 4c bd
       0.031137556 -0.034574833 -0.012303572 -0.0498256
000150 cc e0 b8 bc c3 74 83 bd 92 c6 73 bd 0e 63 bc 3c
       -0.022568129 -0.06418755 -0.059515543 0.022996452
000160 03 cb e3 bc 31 ac 52 3d 7c b2 e1 bc ed da 81 bd
       -0.027806764 0.051433746 -0.027550928 -0.06340585
000170 14 f0 66 bc a4 1b f2 bc f0 29 7d bc e7 bb 8f bd
       -0.014095325 -0.029554196 -0.015451893 -0.070182614
000180 e4 15 45 3d d3 0d 6d bd 14 42 17 3d ae 2a 29 3d
       0.04811658 -0.057874512 0.03692825 0.04130047
000190 cc c4 83 3d 6c 9c 6c bd 47 e9 82 3d 1a 72 0c bd
       0.064340204 -0.057766363 0.0639215 -0.034288503
0001a0 90 ce 17 3d 37 5d aa 3d ca 85 c0 bb 9b e8 c6 3b
       0.037062228 0.083185606 -0.005875324 0.006070209
0001b0 28 ef 83 bc 92 6e 85 bd 1a 71 40 3d 9a 3c a0 bd
       -0.01610525 -0.0651523 0.046982862 -0.07824059
0001c0 3a eb 6b 3d d3 a6 8b 3d 75 5e ac 3d ec f1 5c bc
       0.057597376 0.068189286 0.08416454 -0.013485413
0001d0 40 8c 80 bd 57 71 bb 3c 97 00 53 3d 2c 45 9c bd
       -0.062767506 0.022881193 0.051514234 -0.07630381
0001e0 e6 a2 6e bc d0 8d 35 bd ee fd 23 ba fd 31 13 bd
       -0.014565205 -0.044324696 -0.0006255795 -0.035936344
0001f0 32 2e e4 bc 1b b2 9e bc 2b 74 8c bd 64 34 a0 3d
       -0.027854059 -0.019372037 -0.06858095 0.07822493
000200 f6 61 a1 3d c1 7c 70 bc 64 12 64 bc 3e 68 22 bd
       0.07880013 -0.014678181 -0.0139204 -0.039650194
000210 82 02 a5 bd ef 12 b3 bd 14 31 c7 3c 97 09 2a bd
       -0.08057119 -0.08743846 0.024315394 -0.04151305
000220 d7 28 43 bd dd b1 7e 39 99 0c c0 bc 21 2c ac bc
       -0.04764637 0.00024289587 -0.023443507 -0.021017136
000230 80 41 19 3c d5 08 4d bc e1 ab b9 bc 6f 39 06 bd
       0.009353995 -0.012514313 -0.022664966 -0.032769617
000240 fb 53 93 bd fe 53 87 3d eb 9f 19 bd ca 3c 91 3c
       -0.071937524 0.06607817 -0.037506025 0.017729182
000250 06 24 08 bd 66 67 fe 3a eb 56 95 3d 17 b4 09 3d
       -0.03323748 0.0019409477 0.07291969 0.033619013
000260 37 65 9d bd 22 3b f0 3c e6 78 99 3d e4 9d 8f 3c
       -0.07685321 0.029325072 0.07493763 0.017531343
000270 67 7a 52 3d b3 bd 9e 3d 6b 2c 8e bc 3c cd 4e 3c
       0.051386263 0.07751026 -0.017355165 0.012622174
000280 e0 a6 80 bd 2e 89 b1 bc 54 ce 95 3d 32 ad 61 3d
       -0.06281829 -0.021671858 0.073147446 0.055096813
000290 67 98 22 bd 1c e8 63 bd f6 45 38 bd 53 58 8e bd
       -0.039696123 -0.05564128 -0.044988595 -0.0695044
0002a0 ee 1d 5b bd 4a 00 13 bc 2c 8e 8c 3d d8 3c 0a 3c
       -0.05349534 -0.008972237 0.06863055 0.008437358
0002b0 27 f2 8c bd 0e cd 94 bd 2a 5e 18 3d f8 f3 88 bd
       -0.068821244 -0.072656736 0.037199177 -0.06687158
0002c0 1b 5e 80 bc 69 e8 36 3d b9 7c 1d bd 75 f8 11 bc
       -0.015669873 0.044655237 -0.038449023 -0.008909334
0002d0 0d f0 3b bc c1 a8 c4 bc a4 14 3f bd 47 5f a0 bd
       -0.011470807 -0.02400625 -0.046650544 -0.07830673
0002e0 52 28 92 bd 39 fa 47 bd 66 82 9a 3d 52 95 3a bd
       -0.07136597 -0.048822615 0.07544403 -0.04555256
0002f0 10 e2 79 bd 02 a1 ff 3c b5 f9 0e 3d 51 2c 6f 3d
       -0.061006606 0.031204704 0.034906108 0.058391873
000300 40 e2 97 3d 5b 5a 68 3d cb 2f 91 bd 32 bb 29 3c
       0.07416201 0.056726795 -0.07089194 0.010359572
000310 95 80 6d 3d 10 5f 8e 3b 06 e9 44 bd ce 09 a7 3d
       0.057983954 0.0043448284 -0.04807379 0.08156167
000320 94 b7 f1 bc cc d4 4d bd 10 41 a1 bd f4 c6 ee b9
       -0.029506482 -0.050251767 -0.07873738 -0.0004554313
000330 9e bf 03 3d 83 b6 60 3c 72 cf 3e 3c 72 e7 8e bd
       0.032165162 0.013715389 0.0116461385 -0.069777384
000340 6a 32 ab bd 81 d2 9f bb 4d 90 93 3d a9 d7 43 3d
       -0.08359225 -0.004877389 0.072052576 0.04781309
000350 7b 68 60 bd 57 21 83 bc 93 74 7c bd 16 17 26 bd
       -0.05478714 -0.016007109 -0.06163461 -0.04054936
000360 09 a3 95 3c 6d 09 6f 3d 44 65 ab 3d 67 a2 83 bd
       0.018266218 0.0583586 0.08368924 -0.0642746
000370 d7 54 8b 3d 74 e4 3b bd 1b 43 1a 3d 6c 1d a1 3d
       0.06803291 -0.045872167 0.037661653 0.0786694
000380 10 a0 25 3c 20 30 ac 3d fe 48 80 bd 66 d0 be bc
       0.010108963 0.084076166 -0.06263922 -0.023292731
000390 c0 c8 3a 3d 4e 57 b1 bc 0d d5 9d bc da bb e7 bc
       0.045601606 -0.021648075 -0.01926663 -0.028287817
0003a0 5f 80 85 3d 87 08 3d 3d 21 e7 ca 3c e9 43 48 bd
       0.065186255 0.04615071 0.024768414 -0.04889289
0003b0 9b 07 93 bd 4d d5 f9 3b 5f e0 b7 3c b5 65 21 bd
       -0.07179185 0.0076243044 0.022445856 -0.039403636
0003c0 01 38 e1 bc a0 af 51 3d 87 99 df 3a 2f 7e 83 3c
       -0.027492525 0.05119288 0.0017059305 0.01605138
0003d0 0b ef f2 bb f5 32 7e bd 7d e6 87 bd be fd dc bc
       -0.00741375 -0.062060315 -0.06635759 -0.026976462
0003e0 55 f7 ed bc 8f b5 19 3d c5 8a 42 bc b1 42 a1 bc
       -0.029048601 0.037526663 -0.011873906 -0.019685121
0003f0 5c aa ba 3d 3a 77 29 3d c3 d3 92 3d b6 aa f0 bc
       0.09114525 0.04137347 0.071692966 -0.029378276

enc1.conv2.bias f4 [16]
000000 cf 72 18 3c 4a c3 0d bd 20 d5 9e 3d 68 d5 31 bd
       0.009304716 -0.03461007 0.07755494 -0.04341641
000010 c9 ff 5e 3d 7c f5 a7 bd 37 ec dc bc b9 a7 9d bd
       0.054443154 -0.08201119 -0.026968105 -0.07698006
000020 ad 16 18 bd d2 97 06 3d a2 3b 74 bd 54 1d 97 bd
       -0.037131 0.03285963 -0.059627183 -0.07378641
000030 10 99 79 3d 32 28 37 3d c0 9c 72 ba 32 fa 70 bd
       0.060936987 0.044716068 -0.0009254925 -0.058832355

enc1.bn2.weight f4 [16]
000000 66 c3 7f 3f 59 65 7f 3f eb 97 7e 3f f1 4b 81 3f
       0.9990753 0.9976402 0.9945056 1.01013
000010 90 0c 80 3f 88 fc 80 3f 13 b3 7e 3f bc 83 80 3f
       1.0003834 1.0077066 0.99491996 1.0040202
000020 15 c3 7e 3f 21 11 80 3f 88 5f 80 3f 1d 54 7f 3f
       0.9951642 1.0005227 1.0029154 0.9973772
000030 14 92 80 3f 48 53 80 3f fa f2 7e 3f 73 bc 7e 3f
       1.004458 1.0025415 0.995895 0.995063

enc1.bn2.bias f4 [16]
000000 41 87 fa 3b 2d 05 81 3a 16 9d 51 bb 29 61 05 3c
       0.007645518 0.0009843461 -0.00319845 0.008140841
000010 32 df 39 3a 7f 7b f0 3b 2e 46 df 3a d7 6f ad 3a
       0.00070904486 0.0073389406 0.0017034465 0.0013232183
000020 42 41 23 bb 7f 6c 20 bb 51 fb 43 3b f0 9a 2b 3b
       -0.0024910723 -0.0024478731 0.0029904435 0.002618488
000030 2d 82 fb 3b 53 e3 0d 3b 9a 14 9b ba 69 f9 c9 3a
       0.0076754303 0.0021650388 -0.0011831701 0.0015409413

enc1.bn2.running_mean f4 [16]
000000 4c ab fc bc 03 40 1d bd 62 26 d0 3d ee cc 19 bc
       -0.0308434 -0.038391124 0.10163571 -0.009387238
000010 e4 ed 24 3d 43 5f 9b bd b0 79 3f 3c 09 c5 20 3c
       0.040265933 -0.07586529 0.011686727 0.009812602
000020 9f d0 86 bd 06 0b a9 3d f0 99 95 bc 77 05 de bc
       -0.0658276 0.08254056 -0.01826188 -0.027102215
000030 73 7c 76 bd b9 41 a5 3d 82 03 0c be d4 ed 86 bc
       -0.060177278 0.08069176 -0.13673213 -0.016470827

enc1.bn2.running_var f4 [16]
000000 e9 26 30 3e 13 be 4e 3e eb b6 21 3e 18 74 62 3e
       0.17202343 0.20189695 0.15792434 0.22114599
000010 f6 d6 37 3e 95 48 46 3e c1 03 2e 3e fb 68 36 3e
       0.17953095 0.19363625 0.1699362 0.17813484
000020 08 c6 33 3e 21 f8 66 3e b6 d3 27 3e 1d 8d 74 3e
       0.17556012 0.22555591 0.16389355 0.23881955
000030 23 75 3a 3e 34 b8 4c 3e a3 fe a3 3e f6 9e 22 3e
       0.18208747 0.19992143 0.3203021 0.15880951

enc2.conv1.weight f4 [32, 16, 3, 3]
000000 81 7b c6 bc 57 ad ed bc 38 83 3e 3d 20 4c b1 bc
       -0.024228813 -0.029013319 0.04651186 -0.021642745
000010 0e bf a4 bc 6b a5 61 bd 46 f3 29 bd dc 71 35 3d
       -0.020110633 -0.055089395 -0.04149177 0.044298038
000020 7c 96 5f 3d b7 f0 2c 3c c0 36 ed bc 66 8a ae 3d
       0.054586872 0.010555438 -0.02895677 0.08522491
000030 e4 df 5f 3c d0 f1 f4 bc 91 e1 bc bc 43 5c 68 bc
       0.0136642195 -0.029900461 -0.023056777 -0.014182153
000040 ee 28 40 3d 60 0b 17 3d a6 d9 7b 3d 83 d1 22 bb
       0.046914034 0.036876082 0.061486863 -0.0024844117
000050 9a 43 8b 3d 7b 76 e7 bc 3d 77 11 bd 36 02 be bc
       0.06800003 -0.028254738 -0.035514105 -0.023194414
000060 e3 17 a2 bd fa 12 56 bd b5 22 9a bd 86 7e d0 bb
       -0.07914712 -0.05226419 -0.07526151 -0.006362739
000070 d6 85 47 39 c4 17 c5 bc dc 0e 7c bd 26 a7 95 3d
       0.00019027977 -0.024059184 -0.06153761 0.07307272
000080 a7 53 ec bc ba 2f 16 3d b2 13 54 3d dc 08 6e bd
       -0.028848482 0.03666661 0.051776595 -0.058113918
000090 b1 7a 9f bc fb 37 2a 3d b8 3b 99 3d be ed 82 bb
       -0.019467684 0.041557293 0.074820936 -0.0039956262
0000a0 10 ea 84 3d 17 63 7c bd 86 6c 4f bd 4e ab 97 3d
       0.064899564 -0.061617937 -0.050640605 0.07405721
0000b0 71 c3 9d bb 7f 56 b1 3d be 9a 46 3c c8 85 df bc
       -0.004814558 0.08659076 0.012121854 -0.027285472
0000c0 59 1d 97 3d 20 8b 84 3d ef b8 12 3c 6a 3a 5f bd
       0.073786445 0.064718485 0.008955224 -0.054499067
0000d0 84 d6 02 bc 05 48 29 bd f6 ae 7b 3d 1c 3f 45 3b
       -0.007985715 -0.04132845 0.061446153 0.003009743
0000e0 f8 a8 c3 3c bd 61 5e 3d b1 df e3 3c ad 07 58 bd
       0.023884282 0.05429243 0.027816625 -0.052741695
0000f0 71 32 8d 3d e5 9a 4b 3d ff 68 71 bd 3b 78 85 3d
       0.068943866 0.049708266 -0.058938023 0.06517073
000100 21 d2 f4 3c e1 47 85 bc c5 e1 7f bd 7d 9b 35 bc
       0.029885354 -0.016269626 -0.06247117 -0.011084435
000110 29 9b a4 bd 90 09 48 3d dd dc 79 3d 8a 33 cc bc
       -0.08037407 0.048837245 0.061001647 -0.02492692
000120 63 95 94 3d a9 b9 f4 bc 0c d1 f3 3b d6 0f 46 bd
       0.07255056 -0.029873686 0.007440692 -0.048354946
000130 09 d3 92 bb 6e e2 12 3d 5b 3b 0a 3d 04 ca 0c 35
       -0.0044807238 0.03586047 0.033748012 5.2448036e-07
000140 f4 bd 2e bd 13 fa 6a 3d ad ce 6c 3d e3 4f 7f 3c
       -0.042661622 0.057367396 0.05781429 0.015583011
000150 6a c3 18 bd 05 c7 90 3c 67 06 69 ba 47 b0 9e 3d
       -0.037295736 0.017673025 -0.00088891987 0.07748466
000160 81 eb 51 3c 90 a6 d7 3b 95 f3 78 3c ce 33 3c 3d
       0.012812496 0.006581135 0.015194793 0.045947842
000170 99 e3 d2 ba 8c 7f 9e 3d cc ed 3a 3d a1 03 7b bd
       -0.0016089558 0.077391714 0.045636937 -0.061282758
000180 18 4b c5 ba 64 21 9a bd f6 27 85 bd 06 a8 98 3c
       -0.0015052287 -0.075259 -0.065017626 0.018634807
000190 9a 6e cf 3c 1f 63 93 b9 4e ef 99 3d 07 59 3c bd
       0.025321294 -0.00028111876 0.07516347 -0.04598334
0001a0 9c fe 07 bd 69 47 8b bc 93 5a 53 39 7f 76 06 bc
       -0.0332018 -0.017001824 0.0002015627 -0.008206963
0001b0 27 55 a3 3d 73 d0 09 bd 87 43 2e bd 54 cc f7 3b
       0.07975226 -0.03364606 -0.042544868 0.0075621996
0001c0 9a b1 86 3d c6 8c d1 3c 40 b7 29 3d cd 08 99 3c
       0.065768436 0.025579821 0.041434526 0.018680954
0001d0 38 41 99 3d 93 e3 2c 3d b8 54 51 3d 55 12 5e bc
       0.074831426 0.04220922 0.051106185 -0.013554175
0001e0 5a dc 91 bd 98 b1 2a bd fe 8a d0 3c b4 a4 7b 3d
       -0.07122107 -0.041673273 0.025456902 0.06143637
0001f0 e6 85 f6 bc f5 7e 90 3d 53 d8 1e 3c 1a 97 0f ba
       -0.030093145 0.07055465 0.00969513 -0.0005477533
000200 a0 d5 f2 3a 61 12 89 bc 54 32 ad 3d 48 6a 08 3c
       0.00185268 -0.016732397 0.08456865 0.008326121
000210 82 f1 4c 3d 13 dd 8d bd 2c 3b 0d bd e1 a5 68 3c
       0.050035007 -0.06926932 -0.03448026 0.014199705
000220 0f 6c 9c 3d 93 43 24 3d f0 2d b3 3c 8b ec 9d bd
       0.07637798 0.040103506 0.02187249 -0.077111326
000230 1d 3c e1 3b f4 15 79 bd 9c f3 9c bd e1 21 83 3b
       0.006873621 -0.06081195 -0.07663652 0.0040018414
000240 6a 87 47 bd 66 ff 9c 3d f0 1c 63 bd d2 a0 07 3d
       -0.048713125 0.07665901 -0.05544752 0.033112355
000250 78 91 50 3d 07 b3 85 bd 8c 2f 10 3d 9a 3c 86 bc
       0.05091998 -0.065282874 0.035201594 -0.016386319
000260 be 11 18 3d 35 bd a0 3d bb 68 23 bd 7e 46 2e bd
       0.037126295 0.078485884 -0.0398948 -0.042547695
000270 23 63 7a 3d 27 64 fd 3b f9 23 4c bc 1b db 79 3d
       0.0611297 0.0077328864 -0.012459748 0.06099997
000280 e9 d2 38 bd e4 43 24 bc ea 7f 69 3d 7e 7f f2 3c
       -0.045123015 -0.010025952 0.057006754 0.029601809
000290 e4 5c 48 bd df 1a f4 3c d5 9b 5e bd bf c8 10 bd
       -0.048916712 0.02979797 -0.05434783 -0.035347696
0002a0 2e 76 4f 3d 23 cd b8 bc b0 0b 2f bd a3 46 11 3c
       0.050649814 -0.022558754 -0.042735755 0.008866939
0002b0 ba 29 b8 3c a6 b8 42 bd 49 ac 6a bd 93 a6 ab bd
       0.022480834 -0.047539376 -0.05729321 -0.08381381
0002c0 67 16 b3 3c 11 49 61 bd 0c 21 a1 3b 87 b8 9d bc
       0.021861268 -0.055001322 0.0049172696 -0.019253029
0002d0 a1 a2 7e bd 5c 68 11 bd ae 61 89 bd 3a 58 0d bd
       -0.062166814 -0.035499915 -0.06708084 -0.034507968
0002e0 ca 28 f9 3b 10 14 75 bd 0c db 93 bd 4a 79 79 3d
       0.0076037394 -0.059833586 -0.07219514 0.060906686
0002f0 05 ac d0 3b d3 e4 e4 bc c5 33 5b ba b7 77 83 3d
       0.0063681626 -0.027941143 -0.0008361901 0.06419318
000300 c4 3a 86 bd a0 5d 13 bd b7 35 56 bd 7a 8b 72 3b
       -0.065541774 -0.03597796 -0.05229732 0.0037009404
000310 58 c3 ef 3b 46 3a 71 bd a3 64 76 3d a3 57 72 bd
       0.007316988 -0.058893465 0.06015457 -0.05916561
000320 0d d6 ac 3d 84 2f 47 bd 9d 03 eb bb 1a d1 b1 3c
       0.084392644 -0.0486293 -0.0071720616 0.021706153
000330 41 56 e8 bc bb 1c ae 3d b7 07 40 bd c7 03 92 bb
       -0.028361442 0.08501574 -0.046882357 -0.0044560167
000340 9d bc 74 bd 97 a7 00 3d 9b 81 a5 3d ea cc b2 3d
       -0.05975019 0.031409826 0.08081361 0.087304905
000350 0a c1 a3 3c 52 5e 04 bd d6 c6 b8 3d f4 9d 6b 3c
       0.01998951 -0.032316513 0.090223 0.014380921
000360 cf ff 7a 3d 30 8f 2d bd 8e 12 10 bd 04 fb 8c bd
       0.061279114 -0.042372882 -0.035173945 -0.06883815
000370 f9 0b 9c 3d 12 e5 79 3c e3 2d 57 bd 7a 26 5c 3b
       0.07619471 0.0152523685 -0.052533995 0.003359227
000380 85 91 37 bd aa c3 b9 3b a2 5a 08 3d 76 b6 0e bd
       -0.044816513 0.005669077 0.03328956 -0.034841977
000390 44 63 c9 3c 1a 22 31 bd 31 b9 c8 3c 04 70 92 bd
       0.024583466 -0.043245412 0.024502369 -0.071502715
0003a0 78 f2 b8 3c 64 13 bf 3d c6 2c a4 3d 19 fb 17 3d
       0.022576556 0.0932987 0.08016352 0.0371047
0003b0 ee 5a 86 3d 14 ec a0 3d a7 a0 93 3c 34 c6 d2 3c
       0.06560312 0.07857528 0.018020941 0.025729276
0003c0 47 e3 8e 3c 97 19 9b 3d 4d 39 a3 3d 78 df 16 bd
       0.017442359 0.0757324 0.07969914 -0.03683421
0003d0 3a 71 c8 ba 18 a9 0f bd cb a4 0b 3d e4 ed 94 bd
       -0.0015292533 -0.03507337 0.034092706 -0.072719365
0003e0 29 1a 18 3d 9c 76 5c bc 59 a0 1f 3d 09 eb 0d 3d
       0.037134323 -0.013456013 0.03897128 0.034647975
0003f0 b9 0d 1d bd 25 97 27 3d 12 9f 14 3d 85 b7 8f bd
       -0.038343165 0.040915627 0.036284514 -0.070174254

enc2.conv1.bias f4 [32]
000000 e1 21 c9 bc be 4c 8c 3c c0 a8 db 3c 7c 79 a5 bb
       -0.024552288 0.017126437 0.026813865 -0.0050498825
000010 91 06 5a bd b1 62 33 bd b3 6c 9c bd 22 82 05 bd
       -0.05322892 -0.04379529 -0.0763792 -0.032594807
000020 5b 23 5c bc 59 95 8b 3d df 9e 36 bd 3f ee a7 bd
       -0.013436164 0.06815595 -0.044585105 -0.08199739
000030 ad 02 3b 3d 68 26 93 3d 9a 1d 85 bd 4d e2 25 ba
       0.04565685 0.0718506 -0.06499787 -0.0006327972
000040 bc f6 d8 3c e5 01 5c 3d f0 f5 74 bc 3d 77 1b 3d
       0.02648484 0.053712744 -0.014951214 0.03795551
000050 66 20 83 3d 0b b9 47 3d 65 5e 26 3d b4 07 4f 3d
       0.06402664 0.048760455 0.040617365 0.050544456
000060 82 ef 98 bd 5e 27 91 3c 4f aa 83 3d a0 38 87 bd
       -0.074675575 0.017718967 0.06428968 -0.06602597
000070 b1 9a 95 bd f2 f0 8c bd 6c 98 d1 3c 43 64 9e 3d
       -0.07304896 -0.06881894 0.025585376 0.07733967

enc2.bn1.weight f4 [32]
000000 47 33 80 3f 64 a1 80 3f 00 4c 7e 3f ec f1 7e 3f
       1.0015649 1.0049253 0.99334717 0.99587893
000010 96 80 80 3f e9 ce 80 3f cd 69 7e 3f 7f d2 7f 3f
       1.0039241 1.0063144 0.9938019 0.99930567
000020 19 8b 7f 3f 1c 1b 80 3f 4d e4 80 3f 6d 93 80 3f
       0.9982162 1.0008273 1.0069672 1.0044991
000030 3f b4 80 3f 30 d4 7e 3f 1d 20 80 3f 8a 0f 80 3f
       1.0055007 0.9954252 1.00098 1.0004742
000040 84 1f 80 3f 39 d9 7d 3f 50 60 80 3f b6 21 80 3f
       1.0009618 0.9915958 1.0029392 1.0010288
000050 2b ba 7e 3f 8b ae 7e 3f a3 30 80 3f 82 38 80 3f
       0.9950282 0.9948508 1.0014843 1.0017245
000060 0b bd 7d 3f b5 31 80 3f 05 63 80 3f eb 93 7f 3f
       0.9911658 1.0015169 1.0030218 0.9983508
000070 7f 69 7f 3f 99 26 80 3f 7f 65 80 3f ed f6 7d 3f
       0.9977035 1.0011779 1.0030974 0.99204904

enc2.bn1.bias f4 [32]
000000 52 c5 8a 3b 3b bd 11 3a de 99 0a bb a3 0d b6 bb
       0.004234948 0.00055595086 -0.002114884 -0.005555825
000010 dd 46 a5 ba a1 4a 1a 3c 29 a2 ee 39 a6 b3 84 ba
       -0.001260962 0.009417207 0.00045515716 -0.001012434
000020 6c 37 a8 3b 6d ec 95 3a a9 04 89 ba 5f c7 29 3b
       0.00513356 0.0011438258 -0.0010453659 0.0025906188
000030 f5 d2 b0 3b f8 30 05 bc d0 49 d4 3b 76 9c 83 ba
       0.005396242 -0.008129351 0.0064785257 -0.0010041136
000040 c4 70 43 b9 0e 18 00 bb b3 9a 94 3a 3c 7f 1f 3c
       -0.00018638658 -0.0019545588 0.0011337608 0.009734925
000050 01 71 83 bb 75 3a 01 bc 61 cb a6 3b a5 6a 5b 3a
       -0.004011274 -0.007887472 0.0050901626 0.0008370078
000060 b0 e3 13 bc d7 84 04 3a 9c 24 1f 3c 44 1b af bb
       -0.009026453 0.0005055195 0.009713318 -0.0053438265
000070 a4 72 f0 bb b4 23 44 3b d2 77 d1 3a 87 f0 db ba
       -0.007337885 0.0029928507 0.0015981144 -0.0016780057

enc2.bn1.running_mean f4 [32]
000000 96 5d f5 3d 11 5a 03 3e 3e c2 46 bd 13 15 9f 3d
       0.11980741 0.12827326 -0.048525088 0.077676915
000010 fb bf b2 bc 90 10 e1 bc 2d 2c 38 be e4 8f 27 be
       -0.021820059 -0.027473718 -0.17985602 -0.16363484
000020 b7 18 3f bd af b1 31 3d b1 2a f8 3d 02 6f 09 be
       -0.04665443 0.043382343 0.12117518 -0.13421252
000030 24 92 cc 3d b5 61 30 be c8 61 43 be bf 55 90 3d
       0.099888116 -0.17224772 -0.1908027 0.07047605
000040 8d 02 1d 3e dd 42 5d 3e 66 e9 68 3e af 1e 21 bd
       0.15333004 0.21607538 0.22745284 -0.039335903
000050 a8 d0 fd bb f0 05 6c 3e 78 3d 32 bd 80 33 f6 3d
       -0.007745821 0.2304914 -0.043515652 0.120215416
000060 76 3d 3e be 91 b6 08 be 3c b1 08 3c 72 24 b2 3d
       -0.18578133 -0.13350894 0.008343037 0.08698358
000070 06 8d d2 3c 3d 08 78 bc f5 af 77 3c b1 15 d8 bc
       0.02570201 -0.015138683 0.015117635 -0.02637753

enc2.bn1.running_var f4 [32]
000000 bb dc 18 3f 2a 65 8c 3e 7f 7e d9 3e 82 2b 9d 3e
       0.5971181 0.27420932 0.4247932 0.30697256
000010 16 d9 9c 3e db 3c b4 3e 27 85 f0 3e 49 e3 87 3e
       0.30634373 0.3520268 0.46976587 0.26540592
000020 11 59 c1 3e fb 68 95 3e e0 1e c7 3e 22 b7 de 3e
       0.37763265 0.29181656 0.38890743 0.43499094
000030 8e 8b 91 3e ae 42 2e 3f 0f 56 28 3f d2 1a 6f 3e
       0.28426784 0.68070495 0.65756315 0.23350075
000040 cb 6e 3e 3f b3 11 23 3f f5 90 68 3f c8 1c 12 3f
       0.74387807 0.6369888 0.90846187 0.57075167
000050 a3 ad 01 3f 1a 01 cf 3e b7 7c 7c 3e a6 6a 88 3e
       0.50655574 0.40430528 0.2465695 0.26643866
000060 89 a5 bb 3e c7 3c c3 3e e9 6e 75 3e ab b6 ca 3e
       0.3664973 0.38132307 0.2396809 0.3959249
000070 f2 48 2f 3f 28 96 a9 3e 66 a9 06 3f c1 fc a8 3e
       0.6847068 0.33122373 0.5260223 0.33005336

enc2.conv2.weight f4 [32, 32, 3, 3]
000000 ed 6b 07 bc 2e a1 d4 bc f7 3c 88 3b 03 74 54 bd
       -0.008265478 -0.025955763 0.004157658 -0.05186845
000010 a3 30 e3 3b 84 92 24 bd b6 f9 29 bd 17 33 3b bd
       0.006933288 -0.04017879 -0.04149791 -0.04570302
000020 e2 34 9b bc d9 5a 38 3d 5f fd ac 3c 36 12 4a 3d
       -0.018946115 0.045008514 0.02111691 0.049333774
000030 bd 77 4a bd 47 a9 23 bd 5d 13 37 3d 33 cc 5a 3d
       -0.049430598 -0.039956357 0.0446962 0.053417396
000040 1c 6f 69 3d 31 93 3b bd a6 81 05 3d 91 ef 5a bd
       0.056990728 -0.04579467 0.032594346 -0.053451125
000050 a4 fb 70 bc bc 23 e8 3b 01 ea fd 3c 93 5b 7d bc
       -0.014708433 0.007084338 0.03099537 -0.0154637275
000060 13 eb 39 bd 0e 09 58 bd 39 50 a6 bc ac 99 24 3d
       -0.0453902 -0.05274301 -0.020301925 0.040185615
000070 64 e1 a7 3c 95 ea c8 3c 3b 3b 1e bd 6a 97 57 bd
       0.020493217 0.02452592 -0.038630705 -0.052634634
000080 99 5d 5e 3d 57 4b 10 3d 10 f3 ea bc b3 1e 4b 3b
       0.05428848 0.0352281 -0.028680354 0.003099364
000090 a5 d3 2f 3d 2a 2c 5c 3d 2d de 3c bd cf 31 c7 bc
       0.04292645 0.053753056 -0.04611032 -0.024315743
0000a0 13 ac 78 3c b6 a2 1f 3d 95 5f 84 3c a1 24 4f bc
       0.015177744 0.038973533 0.016158858 -0.01264301
0000b0 ac b1 d2 3a bb 79 76 3d a1 84 1d bd 40 01 0b 3d
       0.0016074679 0.060174685 -0.038456563 0.03393674
0000c0 b8 8a 10 bd 02 7a 4c 3c 3d 4a 47 bd 8a aa 05 3d
       -0.035288543 0.012480261 -0.048654784 0.03263334
0000d0 8d 2b d0 bc 8c 65 5a 3c 7a 4d 05 bd 80 56 20 3c
       -0.025411392 0.013329875 -0.03254459 0.009786248
0000e0 ab 02 f1 bc 6d 74 11 bd 4f 3d fe bc 9a 6b fc 3c
       -0.029420217 -0.035511423 -0.031035094 0.030813027
0000f0 27 91 5f 3b a4 dc 48 bc b1 01 4f 3d b2 7a a5 3c
       0.0034113617 -0.012259636 0.050538722 0.020200107
000100 ae 63 2d bc d1 8a bc 3b 81 4e 9c bc 23 c4 88 bc
       -0.0105828475 0.005753853 -0.019080402 -0.016695088
000110 07 80 60 bc d4 fb b9 3c ef 4e 2d bd bd 35 13 bd
       -0.013702399 0.022703089 -0.042311605 -0.03593992
000120 36 0f 09 3d f2 e8 52 bc e8 ab b9 3b d4 c3 6d 3c
       0.033461772 -0.012872921 0.005666245 0.014512021
000130 23 28 da bc 38 41 48 3d b4 3b 5c bc aa 84 19 3c
       -0.026630467 0.048890322 -0.013441969 0.0093700085
000140 ef 70 06 bd 62 57 fa 3c 67 40 07 bd 6f 79 3b 3d
       -0.032822546 0.030559245 -0.033020403 0.045770105
000150 8e a6 41 bc 71 49 c5 bc 4a 0c ab bc e1 71 f5 3c
       -0.011819495 -0.024082871 -0.020879883 0.029961528
000160 7c 85 86 3d 5f 87 ce 3c 21 84 37 3d 2e ff 23 bd
       0.06568429 0.025211034 0.044803742 -0.04003828
000170 dc 99 8b bb 6d 70 0b bd 4e aa 30 bd 87 14 38 3c
       -0.004260285 -0.034042764 -0.043131165 0.011235363
000180 70 60 a5 bc 11 ec 2f 3c 0d 6e da bc 62 06 3a bd
       -0.020187587 0.010737435 -0.026663804 -0.045416243
000190 b5 3d bf bc 31 6f 48 bd db 47 9b 3c 97 e4 18 bd
       -0.023344854 -0.048934165 0.018955162 -0.037327375
0001a0 27 9e 44 3d b7 ef 00 3d 1e 3b d4 bc 5c 8f 09 bc
       0.04800239 0.03147861 -0.025907096 -0.008395996
0001b0 39 22 59 bd e6 05 22 3d 91 61 fe bc 09 ae 34 bc
       -0.053011153 0.039556406 -0.031052383 -0.011027821
0001c0 cd 2f 48 3b 79 64 17 3d 72 7c b1 bc 0b 91 d5 3c
       0.003054607 0.036961053 -0.021665785 0.026070138
0001d0 f1 33 f9 3c 5a 7d 2c bb 59 3a 30 3d 86 40 48 bd
       0.030420275 -0.0026319833 0.043024395 -0.04888966
0001e0 0e 7e e3 bc 39 a6 b0 b9 0f 84 58 bb 34 75 d1 3c
       -0.027770068 -0.00033693181 -0.0033037697 0.025568582
0001f0 a0 19 3e 3d 72 be 23 bd 6f be 14 3d a4 6d 9e 3c
       0.046411157 -0.039976545 0.036314424 0.01933939
000200 b7 22 5a 3d 1f 41 17 3d 02 28 ee bb 78 db c8 bb
       0.053255763 0.03692734 -0.007267953 -0.0061296783
000210 42 60 0c bd a7 cf 87 3c 84 04 49 3d b5 55 d9 3c
       -0.034271486 0.016578509 0.049076572 0.026530126
000220 80 f8 5f 3d 22 be fe 3c 28 ed 93 3c 60 a4 9d bb
       0.054680347 0.031096522 0.01805742 -0.004810855
000230 46 c1 47 bd c0 8c 83 bc d3 62 40 3d 0f 3a 72 3d
       -0.048768304 -0.016058326 0.046969246 0.0591374
000240 aa 8c ab bc d3 c3 44 3d cd e7 54 3d eb 4b 4f bd
       -0.020941097 0.048038315 0.051978875 -0.05060951
000250 45 e2 50 bd 27 94 b1 bc d7 fa 0f bc 71 18 a9 3c
       -0.050997037 -0.02167709 -0.008787832 0.020641537
000260 ee 4b bc 3c bb 65 08 3d 29 a2 07 bd 73 1b 19 3d
       0.022985425 0.033300143 -0.033113632 0.037379693
000270 f1 bc 36 3c 86 5a 2d bd 34 9b 13 bd e7 a4 9d 3c
       0.011153446 -0.042322658 -0.036036685 0.01924367
000280 74 a1 59 3d f1 18 29 bd df f2 fe 3b 98 e1 69 bd
       0.05313249 -0.04128355 0.0077804173 -0.05709991
000290 28 47 1c 3d 3e 95 84 3c 72 c2 74 bc 6e b6 03 3d
       0.038153797 0.016184445 -0.0149389375 0.0321564
0002a0 3e c6 af 3c 40 f4 20 3d 25 db 94 3b f6 b7 96 bb
       0.021456834 0.039295435 0.0045427256 -0.0045995666
0002b0 da 2b b3 3c 86 65 60 3c 9a 79 39 bd 62 b1 c6 bc
       0.021871496 0.01369608 -0.045281984 -0.024254505
0002c0 85 92 01 3d 70 90 07 bd 75 38 46 3d 41 f9 0f bc
       0.031633873 -0.03309673 0.048393685 -0.008787454
0002d0 91 e4 81 3d 8c e1 e0 bc 9b 16 3f 3d bb c8 f0 bc
       0.06342424 -0.0274513 0.046652418 -0.02939259
0002e0 4e e9 16 3d 0b 74 e5 3c f7 5d db 3c 4b 9e aa 3c
       0.03684359 0.028009435 0.026778204 0.020827433
0002f0 02 72 03 3d ba 23 c1 bc 22 ee 94 bc 96 64 91 3c
       0.03209115 -0.023576606 -0.018179957 0.017748158
000300 b9 c4 39 bd 03 56 28 3a 5d c7 b7 3c 33 12 5b bd
       -0.045353625 0.0006421508 0.022433931 -0.053484153
000310 8c 1e 09 bb 06 21 8a 3b 0b 3b 4a bd 23 e4 2a 3d
       -0.0020922748 0.0042153625 -0.049372714 0.041721474
000320 fc 26 f1 ba 9b 3d 6d bd 50 6e b4 bc f9 8f 39 3c
       -0.0018398459 -0.05792008 -0.022025257 0.01132583
000330 e4 01 1b 3d b2 bd c2 bc 05 64 46 3d 87 2c f4 bc
       0.0378436 -0.023772094 0.04843523 -0.029806389
000340 4b 38 54 bd bc 9e 9f bc 7d af fc bc 0f c6 e4 3c
       -0.051811498 -0.01948487 -0.030845398 0.027926473
000350 58 0d 42 3d a2 81 54 bd c1 79 40 bd de 29 17 3d
       0.047376007 -0.05188144 -0.046991114 0.036905162
000360 c2 f8 26 bc 0b b2 68 3d 19 6a 68 3d 41 00 17 bd
       -0.010191144 0.05681042 0.056741808 -0.036865477
000370 84 fb 18 3d 53 f5 5e bd 59 4d da 3c fb d4 f9 bc
       0.03734924 -0.05443318 0.02664821 -0.030497065
000380 b1 13 45 3b 1f 90 82 3d 4a 93 5f 3c ac 3c e2 bc
       0.0030071551 0.06375145 0.013645956 -0.027616821
000390 e1 4f 0a 3d 65 0e 8f bb 00 10 67 3d 43 d5 17 bd
       0.033767585 -0.0043657296 0.056411743 -0.037068617
0003a0 07 72 a2 bb 0b b8 3b bd f3 75 da bc b9 62 44 bc
       -0.004957441 -0.045829814 -0.02666757 -0.011986428
0003b0 16 47 25 bd 2e 47 32 bd 9e 05 8e bc 83 bf 13 bd
       -0.040350996 -0.043524913 -0.017336663 -0.03607131
0003c0 3c ca 24 bd c4 da b8 ba 5d 44 3c bd cd db f4 3c
       -0.04023193 -0.0014103283 -0.045963634 0.029889965
0003d0 ad 09 0e 3d dc c8 4d 3d 39 04 d9 3c 48 69 5f 3b
       0.034677196 0.050240383 0.026491271 0.0034089852
0003e0 3e ea f7 ba 83 b3 d8 bc c7 a0 25 3d bb a8 02 3d
       -0.0018914414 -0.026452785 0.040436532 0.031899195
0003f0 12 eb 26 3d ef 47 39 bc bc 18 1a bd f5 18 89 3c
       0.040751524 -0.011308654 -0.037621245 0.016735533

enc2.conv2.bias f4 [32]
000000 90 fa a4 3c b4 c3 35 3c f3 4f 31 3d 78 44 cd 3b
       0.020139009 0.011094023 0.043289136 0.0062642656
000010 98 4a 43 3d a1 30 6b 3c b4 aa ab bb e5 f1 48 3d
       0.04767856 0.014354856 -0.0052388553 0.049058814
000020 c8 5a fb 3a 33 18 1a 3b b4 80 3a bc 31 c3 0d 3d
       0.0019176835 0.002351296 -0.011383224 0.034609977
000030 c9 23 8f bc a0 4b 3c 3d 17 da 00 3d 71 73 78 ba
       -0.017473118 0.04597056 0.031457987 -0.00094776513
000040 fd c0 1d bc df 27 bd 3c e3 b1 6b bd bf ad 9f bc
       -0.0096285315 0.023090301 -0.057542693 -0.019492028
000050 bb 56 aa bc 44 90 ec bb 07 01 e7 bc 0b 73 d0 bc
       -0.02079331 -0.0072193462 -0.028198732 -0.025445482
000060 a0 9a e5 3c f3 be cc bb 03 4a 27 bd 68 a7 8b bb
       0.028027833 -0.006248349 -0.040842067 -0.0042618997
000070 e6 d1 9b 3c 77 90 c3 bc 81 44 4d 3d 34 7d 27 bd
       0.019020986 -0.023872597 0.05011416 -0.040890887

enc2.bn2.weight f4 [32]
000000 36 4f 80 3f a2 44 80 3f 05 00 7f 3f ca 72 7e 3f
       1.0024173 1.0020945 0.99609405 0.99393904
000010 f6 5f 7f 3f 22 35 7f 3f 07 81 7f 3f d0 20 7e 3f
       0.997558 0.9969045 0.99806255 0.9926882
000020 4b d6 80 3f c6 9b 80 3f 7f b3 7e 3f 82 0d 80 3f
       1.0065397 1.0047538 0.9949264 1.0004122
000030 40 c3 7e 3f 4f 3c 7e 3f e5 4e 7e 3f 61 87 7f 3f
       0.9951668 0.99310774 0.99339134 0.99815947
000040 97 b8 80 3f 23 72 80 3f 26 e8 80 3f da 7a 7f 3f
       1.0056332 1.0034832 1.0070846 0.9979683
000050 14 dc 80 3f 0c f6 7e 3f a3 16 80 3f f5 7d 81 3f
       1.0067163 0.9959419 1.0006908 1.0116564
000060 ae 95 7e 3f 08 ef 80 3f 23 c6 7e 3f bb 75 7e 3f
       0.99447143 1.0072947 0.9952108 0.9939839
000070 03 3a 80 3f 11 89 7e 3f 80 b1 80 3f c9 ab 80 3f
       1.0017704 0.99427897 1.0054169 1.0052425

enc2.bn2.bias f4 [32]
000000 de d2 2b 3c a4 02 bd ba 43 2f 14 bc 52 c3 09 bc
       0.010487286 -0.0014420343 -0.009044471 -0.008408384
000010 7e 9b 92 b9 db 27 7a bb a7 15 65 3b 93 21 86 bb
       -0.0002796314 -0.0038170728 0.0034955533 -0.004093358
000020 12 ee 87 3b ff 1d a1 3b 52 d8 6d b9 e4 4c 97 ba
       0.0041482532 0.004916906 -0.00022682667 -0.0011543301
000030 04 c1 b8 bb 54 6e 64 3a 18 9b 5f bb ac 05 f1 3a
       -0.0056382436 0.000871395 -0.0034119543 0.0018388531
000040 80 4b ad ba d0 fd 61 b8 36 66 15 3c e1 69 dd 3b
       -0.0013221353 -5.388056e-05 0.009118607 0.0067570065
000050 3d 4a f4 bb c7 cb f2 ba 25 7b ed 3b 3b 10 44 3b
       -0.007455139 -0.0018523865 0.007247346 0.00299169
000060 dd 97 ac 3a fc 1d 01 bb 1b a8 16 ba bd 3b 72 38
       0.0013167817 -0.001970171 -0.00057470956 5.775293e-05
000070 42 45 09 3c 52 40 ea 3a 0a 06 9f 3b cd bb ba 3b
       0.008378329 0.0017871952 0.004853015 0.005698657

enc2.bn2.running_mean f4 [32]
000000 a8 b4 c4 3a eb 8d c8 3d 34 21 8e bb 93 b5 82 bd
       0.0015007453 0.09792694 -0.004337454 -0.06382289
000010 96 d8 7f 3d f5 67 6c 3c aa 57 a4 bd 72 e6 8c 3d
       0.06246241 0.014429082 -0.08024533 0.068798915
000020 7e e1 12 3e 65 02 b7 3d bd 2a ca bd fa c1 c9 bd
       0.14343831 0.089360036 -0.09871433 -0.09851451
000030 da 2a d0 bd e0 df d4 bc 3a 13 a5 3c b5 78 19 3e
       -0.10164423 -0.025985658 0.02015077 0.14987452
000040 3c 3e b3 bd 01 3b fc bd 93 7a e1 3b 4f 85 00 be
       -0.08752105 -0.123159416 0.006881067 -0.12550853
000050 1b 83 de 3d a7 38 44 be a7 6a 01 bc 5a 9e 3c 3d
       0.1086485 -0.19162236 -0.007898963 0.046049453
000060 82 4d c4 3d f0 74 a8 bd 08 73 02 be 35 e8 00 3b
       0.09585096 -0.08225429 -0.12739193 0.0019669656
000070 fe 34 66 3b 80 79 23 be 2b 64 d2 3d 5d fd eb 3d
       0.00351268 -0.15964317 0.10273012 0.115229346

enc2.bn2.running_var f4 [32]
000000 6e 48 86 3e 63 a5 65 3e e7 06 55 3e d8 bd 20 3f
       0.26227134 0.22426371 0.20803414 0.6278968
000010 6f c2 ca 3e e3 00 a3 3e 8d a0 8d 3e 62 af b5 3e
       0.39601466 0.31836614 0.27661553 0.3548537
000020 22 b1 9e 3e 4f 79 af 3e a0 27 6f 3e 38 17 d9 3e
       0.30994517 0.3427224 0.2335496 0.42400527
000030 3e 0d 69 3f ea f8 c2 3e c2 69 b9 3e 6f eb 91 3e
       0.9103583 0.3808053 0.362135 0.28499934
000040 22 3f 88 3e 7d ae e9 3e 31 5e a3 3e 83 b4 b4 3e
       0.26610667 0.45640936 0.319078 0.3529397
000050 01 ab 62 3e e8 d7 5c 3f db e5 7f 3e 3b b7 9e 3e
       0.22135545 0.86266947 0.24990027 0.3099917
000060 a4 97 80 3e 30 fa 9a 3e 91 69 81 3e b8 b0 5a 3e
       0.25115693 0.30269003 0.25275853 0.21356475
000070 23 ff 56 3e fb 52 0c 3f 74 5a cd 3e 60 af 6d 3e
       0.20995764 0.5481412 0.40108073 0.23211432

bottleneck.conv1.weight f4 [64, 32, 3, 3]
000000 ff 23 61 3d 4c 5a bb 3c 84 3e 0d bd 4a 9a 68 bd
       0.05496597 0.022870205 -0.034483448 -0.056787767
000010 62 00 a0 3c d5 37 78 bc b2 9a 82 3c cc 48 ae 3c
       0.019531433 -0.01515003 0.015942905 0.021274947
000020 65 71 39 bd 7b da f1 3b 22 cc 52 bc 89 90 56 bd
       -0.045274157 0.007380781 -0.012866052 -0.052383933
000030 50 bd 30 3c 4f a3 27 3c 3c 9e 32 bd c0 de 47 3d
       0.010787323 0.010231807 -0.043607935 0.048796415
000040 56 6e c6 3c bb da d7 3c e3 3a 5c bd 51 0e 5e bd
       0.024222534 0.026349416 -0.053767096 -0.054212872
000050 aa a3 c6 3c ce 14 e5 3c 9a 55 68 bd 53 05 49 3d
       0.024247963 0.027964022 -0.05672226 0.049077343
000060 53 c9 a1 bc d3 d3 4f bd e8 50 3f bd f5 82 0c bc
       -0.01974932 -0.05073912 -0.046708018 -0.008576144
000070 5f 5f 0f 3d 7c b2 1a bd 0b af 30 3d 78 d3 77 3d
       0.035003062 -0.037767872 0.043135684 0.060504407
000080 77 59 55 3d 75 a4 ad 3c 6c 44 f7 bc f6 99 e7 bc
       0.052087273 0.021196583 -0.030183993 -0.028271656
000090 2b a3 34 3d 63 e3 51 bc 01 68 d2 3b a8 58 78 3d
       0.04410092 -0.012810561 0.0064210896 0.060631424
0000a0 ec 53 77 bd 5d 3a 93 bc c8 3f c1 bc 86 b0 5f bc
       -0.06038277 -0.017972166 -0.023589984 -0.013652926
0000b0 41 49 61 ba 85 04 84 bc 96 cc 6a 3d a4 a2 b7 3c
       -0.00085939845 -0.016115436 0.057324015 0.02241642
0000c0 6f 09 24 bd f4 03 74 3d b2 97 99 bc fa 57 e9 3a
       -0.04004806 0.059574082 -0.018749092 0.0017802708
0000d0 44 63 bc 3a fb 7a 45 bd 28 1c db 3c 76 4a 1c bd
       0.0014372845 -0.048212986 0.026746824 -0.03815695
0000e0 7f 71 5b bd ec 33 31 3d 0b 88 e8 3c 4e 3d fe bc
       -0.053575035 0.043262407 0.028385183 -0.031035092
0000f0 ef 50 45 bd 47 90 40 3d 65 89 70 3c 85 36 28 bd
       -0.048172887 0.047012594 0.014681195 -0.04106762
000100 f5 13 4a bd 94 26 ce bc 41 a3 1b bd 06 aa e4 ba
       -0.04933544 -0.02516488 -0.037997488 -0.001744569
000110 76 c6 8f ba d5 07 83 bd 71 48 ba 3c 26 cf b4 3c
       -0.001096918 -0.06397978 0.02273962 0.022071432
000120 bb 97 52 bd 34 e9 4a 3d a5 ca ab bc 87 76 fd 3c
       -0.051414233 0.049538806 -0.020970652 0.030940307
000130 77 d0 74 3d 4c d6 17 3d 42 5b 1e 3d 27 48 02 39
       0.05976912 0.037069604 0.03866125 0.00012424645
000140 25 14 ec 3b eb ab 46 bd 60 21 30 bd 5b e7 3f 3d
       0.00720455 -0.048503798 -0.04300058 0.046851497
000150 fb 60 58 bd 93 c9 db 3c af 37 10 bd 37 6e 37 3d
       -0.052826863 0.026829517 -0.035209354 0.044782843
000160 28 ea 15 3d 57 dc a2 bc f0 1a 1d bc 81 a7 29 bd
       0.036600262 -0.019880457 -0.009588942 -0.04141951
000170 38 83 5f 3d 72 e0 24 bd e1 38 aa 3c bf 3c 26 3d
       0.0545685 -0.04025311 0.020779075 0.040585276
000180 11 2b 82 bd 40 27 83 bd 19 94 3f bd f0 ee 0e bc
       -0.063558705 -0.06403971 -0.046772096 -0.008723959
000190 9e b9 1e 3d f1 c3 76 bc 5c 01 d9 bc 83 5a 2e 3d
       0.038751237 -0.0150613645 -0.026489906 0.042566787
0001a0 bb d0 47 3d fc 1b d9 3c 98 a6 50 3d e7 99 68 bd
       0.048783045 0.026502602 0.050940126 -0.056787398
0001b0 c3 64 5a bd a5 56 07 3c 68 73 52 bd 7d 05 99 bc
       -0.05331875 0.008260404 -0.05137959 -0.018679375
0001c0 da 09 07 3d f1 88 60 3d c1 82 50 bc f5 9f 5c bd
       0.03296838 0.054818098 -0.012726487 -0.053863484
0001d0 4f 62 fc bc 04 c3 79 3d a1 55 3f bc c4 58 5d bd
       -0.030808596 0.060976997 -0.01167813 -0.05403973
0001e0 0e d6 fd bc 79 b0 16 bd 9c 99 4e bc 48 c6 46 bd
       -0.030985858 -0.03678939 -0.0126098655 -0.04852894
0001f0 ae 41 ce bc 82 86 47 3d 3d 83 f2 bc 5f 28 7a bc
       -0.025177803 0.04871226 -0.029603595 -0.015268414
000200 43 6f f9 3c 68 da 77 bd c9 2d 11 bd 1b 9e 2d bc
       0.030448562 -0.060511023 -0.035444055 -0.010596777
000210 05 31 28 3d 7b 6a a7 3b 77 40 d6 bb b6 73 b9 bc
       0.041062374 0.005109129 -0.0065384465 -0.022638183
000220 97 71 bf 3c d8 4e f4 bc 5b 3e 76 bc ac 3b fc bc
       0.023369594 -0.029822752 -0.015029515 -0.030790173
000230 63 56 81 3c d7 e7 56 3d fc 85 4e bd 2b f6 30 bc
       0.015788263 0.052467193 -0.050420746 -0.0108008785
000240 cc 46 8f bb a5 01 f2 bc 58 45 29 bd f9 c1 f3 bc
       -0.0043724533 -0.0295418 -0.041325897 -0.02975558
000250 49 c9 4a bd 11 20 30 3d 10 d5 47 bd 90 47 05 3d
       -0.049508367 0.04299933 -0.048787177 0.03253895
000260 6c 20 31 3d f7 4b 2c bc ca 62 67 3d 7c 56 35 3d
       0.04324381 -0.010516158 0.056490697 0.04427193
000270 10 2a 26 bd 80 2a 10 3d 8a f1 7b 3c ee fc 36 3d
       -0.040567458 0.03519678 0.015377412 0.044674806
000280 fc 26 2b bd b9 f2 40 3d c4 59 27 3c 15 b0 f6 3c
       -0.041785225 0.04710648 0.010214273 0.03011326
000290 0d bc 00 bd 56 97 20 3d 08 f8 d9 ba ba 75 4c 3d
       -0.03142934 0.039206825 -0.0016629705 0.04991696
0002a0 98 db 43 3b 0d 0e 0c 3d 27 f4 24 bd 46 15 4b bd
       0.0029885527 0.034193087 -0.040271904 -0.049580835
0002b0 c7 19 bc 3c 55 ff 08 3d 4a ed a0 3c 6a c0 a8 3c
       0.02296151 0.03344663 0.019644398 0.020599563
0002c0 c6 5d 18 3d 24 09 0b bd 04 9c df 3c d7 b7 bd 3c
       0.037198804 -0.033944264 0.027296074 0.02315895
0002d0 7e 25 d7 bc 94 89 14 bd 59 0d 74 bd f7 03 1c 3d
       -0.026262995 -0.036264017 -0.05958304 0.03808972
0002e0 50 50 ee bb 2b 61 dd 3b 30 4f 44 bd cf de 55 bd
       -0.0072727576 0.006755968 -0.04792708 -0.05221444
0002f0 17 76 26 3d 42 a8 32 3d d5 49 06 3d c5 a0 42 3d
       0.040639963 0.043617494 0.032785255 0.047516603
000300 30 41 33 3d ed a2 04 3d 40 58 23 3d 7a 0f 2d bc
       0.04376334 0.03238194 0.039879084 -0.010562772
000310 9d 19 47 3c 7e b0 5c bd 93 27 c3 bc 5e e8 a7 bb
       0.012152103 -0.053879254 -0.023822581 -0.005124136
000320 db 60 98 bb 3b 62 58 3d 67 f8 2a 3d 9b a8 7a 3c
       -0.004650218 0.052828055 0.0417408 0.015298988
000330 89 a2 47 3d d0 f9 0a bd e4 46 c2 3b e3 25 3c bd
       0.04873899 -0.033929646 0.005928861 -0.04593457
000340 33 70 46 bd f8 43 fc 3c 32 68 58 3c f4 d4 21 bc
       -0.048446845 0.030794129 0.013208436 -0.009877432
000350 14 e2 38 bd 4e 91 21 3d 6a 78 1e bc c1 ff 0a 3d
       -0.04513748 0.039445214 -0.009672264 0.033935312
000360 fa 7f 28 bd ce d4 2f 3d e6 65 c9 bb 2c bd c8 bc
       -0.041137673 0.042927556 -0.0061461804 -0.024504267
000370 aa 56 37 bc ad 43 53 bd e8 d5 8d bc 10 33 74 bb
       -0.011190096 -0.051578213 -0.017313913 -0.003726188
000380 e5 8b 4f bd 38 dd f0 3c 29 3c 57 3d a9 e5 dd 3c
       -0.050670523 0.02940236 0.052547608 0.02708705
000390 ec 7b f1 bc 39 f1 1d bd d8 cc 4b bd 06 4c 1d bd
       -0.029478036 -0.038560126 -0.0497559 -0.03840258
0003a0 a5 55 1a 3d 9b 6c ca 3c e2 ef ae bc d6 e5 08 3a
       0.037679333 0.02470999 -0.02135462 0.00052222365
0003b0 4c 59 2c bc b3 64 1a bb ae 8f 7b bd 33 04 41 3d
       -0.010519337 -0.0023558557 -0.06141632 0.047123145
0003c0 ba 48 b0 bc c0 11 62 bd 1f c9 95 bb 60 43 9d 3c
       -0.021519054 -0.05519271 -0.0045710946 0.019197166
0003d0 8e 68 e9 3c 03 cc ed bc a6 71 d4 bb 26 e6 44 bd
       0.028492238 -0.029027944 -0.0064832745 -0.04807105
0003e0 a0 f0 44 bd e9 b9 21 bd 2a c3 1b bd 29 8c 0b 3d
       -0.04808104 -0.03948394 -0.03802792 0.034069214
0003f0 ae 87 69 bd 89 6c 7b bc 40 4a f0 bc 0d 39 00 3d
       -0.05701416 -0.015345701 -0.02933228 0.031304408

bottleneck.conv1.bias f4 [64]
000000 65 f8 06 bd 33 3b 65 bd 9e 06 30 3d fe 28 6d 3d
       -0.03295173 -0.05596466 0.04297506 0.05790042
000010 52 90 23 3d f5 08 49 3d 77 29 fb bb 8d 9a 44 bd
       0.039932556 0.049080808 -0.007664855 -0.047998954
000020 34 e5 a4 bc fa c1 19 3c 68 b8 64 3d c0 38 f8 3b
       -0.020128824 0.0093846265 0.055839926 0.0075751245
000030 ab f3 dc 3c 30 76 54 3d e6 88 86 bc cc 0d 53 bd
       0.026971659 0.051870525 -0.0164227 -0.05152683
000040 8e e4 dc bc 19 5d 70 bd 89 77 da 3c c2 e7 de bc
       -0.026964452 -0.058682535 0.026668327 -0.02721012
000050 e3 94 1c bc cb 70 03 bd ec 47 7d bc e6 68 6e 3d
       -0.009556982 -0.03208999 -0.015459042 0.058205508
000060 b0 b8 72 3c 79 65 d3 bc 18 27 3e 3d f5 46 11 bd
       0.014814541 -0.025805222 0.046424 -0.03546806
000070 9d 1f 44 3c d7 7e 31 bd f5 39 22 ba c9 97 2e bd
       0.011970428 -0.043333855 -0.0006188446 -0.042625222
000080 d9 a3 09 3d 0d 60 0f bc b9 a8 fe 3b a5 86 14 bd
       0.033603523 -0.008750928 0.007771578 -0.03626122
000090 5c a9 61 3d 18 0c 64 3d af 9a 25 3d 05 79 6b bd
       0.055093154 0.055675596 0.04043072 -0.05748846
0000a0 fe e3 70 bd e5 41 1b bd 06 ea ec 3c 00 23 fe 3c
       -0.05881118 -0.03790464 0.028920185 0.031022549
0000b0 b2 db 9b 3c 2d f7 39 bd 8f d0 11 3d 2f 78 50 bd
       0.019025657 -0.04540174 0.035599288 -0.050895866
0000c0 dc 18 65 bd 1c 92 d4 bc 03 20 05 3d 7d 58 1e bd
       -0.05593191 -0.025948577 0.032501232 -0.038658608
0000d0 61 3d 0f 3d f7 d9 f1 3c 13 51 ea 3c d4 69 61 bd
       0.034970645 0.029522879 0.028603112 -0.055032566
0000e0 96 d7 19 bc 96 1f 6f bd 5e 94 52 bc c1 09 11 3d
       -0.009389779 -0.058379732 -0.012852756 0.035409693
0000f0 44 0f 0d bc 11 9a 6c 3d 12 b8 57 3d b1 a0 5c bc
       -0.008609597 0.057764117 0.052665778 -0.013466046

bottleneck.bn1.weight f4 [64]
000000 d8 8e 7f 3f 3b 4a 7e 3f 61 05 80 3f 3d 13 7f 3f
       0.9982734 0.99332017 1.0001642 0.9963873
000010 f9 ea 80 3f 21 67 80 3f 2a 10 81 3f 95 1b 7f 3f
       1.0071708 1.0031472 1.0083058 0.9965146
000020 51 a2 7e 3f a1 65 81 3f 91 f2 7f 3f 85 56 7e 3f
       0.99466425 1.010914 0.999795 0.9935077
000030 2f e0 7e 3f 39 60 7f 3f 48 de 7e 3f 13 34 80 3f
       0.99560827 0.997562 0.99557924 1.0015892
000040 96 04 81 3f f9 d2 7d 3f 16 80 7f 3f 20 ef 7f 3f
       1.0079525 0.99150044 0.9980482 0.9997425
000050 6e 9d 80 3f 80 6e 80 3f 29 34 7f 3f 9d 5d 7f 3f
       1.0048044 1.0033722 0.99688965 0.9975222
000060 f0 e7 80 3f 5e 50 80 3f 52 80 7f 3f 6d cc 7e 3f
       1.0070782 1.0024526 0.99805176 0.9953068
000070 05 e9 7f 3f b5 2d 80 3f d8 4f 7e 3f bd f1 80 3f
       0.99964935 1.0013949 0.9934058 1.0073773
000080 05 18 80 3f 28 50 7f 3f 93 26 7e 3f a3 af 7f 3f
       1.000733 0.99731684 0.9927761 0.99877375
000090 6f d5 7f 3f 66 8d 80 3f 2e 4a 80 3f 70 2f 80 3f
       0.9993505 1.0043151 1.0022638 1.0014477
0000a0 4d 39 7e 3f da ed 7e 3f ec c2 80 3f 03 79 7f 3f
       0.99306184 0.9958168 1.0059485 0.99794024
0000b0 c9 10 81 3f 73 5f 80 3f 45 2d 7e 3f 00 8d 80 3f
       1.0083247 1.0029129 0.99287826 1.004303
0000c0 c9 7a 7f 3f 04 f5 7f 3f 69 cd 7d 3f 7b ba 7f 3f
       0.9979673 0.9998324 0.99141556 0.9989392
0000d0 a0 b3 7f 3f d7 f4 7e 3f d2 67 80 3f a4 ca 80 3f
       0.9988346 0.99592346 1.0031683 1.0061841
0000e0 0a e3 7f 3f 20 62 7f 3f 40 71 7f 3f 7a f5 7f 3f
       0.9995581 0.997591 0.9978218 0.9998394
0000f0 5a 30 80 3f 5b 90 80 3f 73 50 80 3f 75 af 7e 3f
       1.0014756 1.0044054 1.0024551 0.99486476
